src/rec_system/model/output/neumf_factor8neg4_Epoch4_HR1.0000_NDCG1.0000.model (torch, 39758 bytes, 17 tensors)

embedding_user_mlp.weight f4 [200, 4]
0	0x3ce9387c	0.028469317
1	0xbcde85a5	-0.027163336
2	0xbd0c2c1f	-0.034221765
3	0xbd002584	-0.031285778
4	0x3d3e1dbc	0.046415076
5	0xbd47c3f0	-0.048770845
6	0xbd4fe921	-0.05075944
7	0xbd20db8a	-0.03927187
8	0x3d1dd974	0.038537458
9	0xbd55228d	-0.052034903
10	0xbd36f974	-0.04467149
11	0xbd28a5dd	-0.041173805
12	0x3cd70d26	0.026251387
13	0xbcf7d088	-0.030250803
14	0xbcc740dc	-0.02432292
15	0xbceffba4	-0.029294796
16	0x3d40e472	0.047092862
17	0xbd2ede14	-0.04269226
18	0xbd491023	-0.049087655
19	0xbd2f769f	-0.042837735
20	0x3cbe5178	0.023232207
21	0xbc4ef25b	-0.012631024
22	0xbba99b21	-0.0051759635
23	0xbcd99f5e	-0.02656525
24	0x3d321e33	0.04348583
25	0xbd37778e	-0.04479175
26	0xbd4a8122	-0.049439557
27	0xbc319396	-0.01083841
28	0x3d07f270	0.03319019
29	0xbce5df32	-0.02806053
30	0xbcecfa2c	-0.028927885
31	0xbd231a94	-0.03982027
32	0x3d3c213b	0.04593013
33	0xbd45e960	-0.048318267
34	0xbd3a5ac6	-0.045496725
35	0xbd2d4138	-0.042298526
36	0x3d12bcd4	0.03582461
37	0xbd291bd6	-0.041286312
38	0xbd25f84e	-0.040520005
39	0xbd2d5559	-0.042317722
40	0x3ccab6c1	0.024745347
41	0xbcc886ee	-0.024478402
42	0xbcc25f5c	-0.023727112
43	0xbcde3f33	-0.027129745
44	0x3cdc48dd	0.026890213
45	0xbce0d1de	-0.027443822
46	0xbce92c60	-0.028463542
47	0xbce8fc38	-0.02844058
48	0x3d59a8b4	0.053139403
49	0xbd350b57	-0.044200268
50	0xbd34eddb	-0.04417215
51	0xbd7afffc	-0.061279282
52	0x3d5d4df9	0.05402944
53	0xbd3a6c56	-0.045513473
54	0xbce75909	-0.028240697
55	0xbd4aea3f	-0.0495398
56	0x3d1c8258	0.038210243
57	0xbd1d0a2b	-0.038339775
58	0xbd1c51c4	-0.038163915
59	0xbd2c93f5	-0.04213329
60	0x3d15b19e	0.036546342
61	0xbd3613fb	-0.04445265
62	0xbd00959c	-0.03139268
63	0xbcc4c1fa	-0.024018276
64	0x3d29376d	0.041312624
65	0xbd0bd3d5	-0.034137566
66	0xbd226137	-0.039643493
67	0xbd12e2ed	-0.035860945
68	0x3d87c9ca	0.06630285
69	0xbd655196	-0.05598601
70	0xbd614418	-0.05499658
71	0xbd224aa9	-0.039621983
72	0x3d4db100	0.05021763
73	0xbd218745	-0.039435644
74	0xbd35cb84	-0.04438354
75	0xbd4262ca	-0.047457494
76	0x3d82465a	0.06361075
77	0xbd5510dd	-0.052018035
78	0xbd70e885	-0.058815498
79	0xbd864f39	-0.06558079
80	0x3d407262	0.046984084
81	0xbd32c637	-0.043646064
82	0xbd1d4a0e	-0.038400702
83	0xbd4401c8	-0.04785326
84	0x3cc2804f	0.023742823
85	0xbcd02af0	-0.0254111
86	0xbce165d3	-0.027514374
87	0xbcd3a25c	-0.025834255
88	0x3d2f07a2	0.04273189
89	0xbd22c48d	-0.039738227
90	0xbcce464f	-0.02518001
91	0xbd3edf96	-0.046599947
92	0x3d73065b	0.059332233
93	0xbd6e43af	-0.058170017
94	0xbd6e0ee9	-0.05811969
95	0xbd8598bf	-0.06523275
96	0x3d583bfa	0.052791573
97	0xbd22c9dc	-0.03974329
98	0xbd0f9da3	-0.035062443
99	0xbd109d40	-0.035306215
100	0x3d01907d	0.031631935
101	0xbccec809	-0.025241869
102	0xbcede85d	-0.029041464
103	0xbd02a180	-0.0318923
104	0x3d383ced	0.04497998
105	0xbd38e283	-0.045137893
106	0xbd107999	-0.035272215
107	0xbd4870cf	-0.048935708
108	0x3cd8ea55	0.026478926
109	0xbd0188b7	-0.031624522
110	0xbc7f7d36	-0.015593817
111	0xbce14846	-0.027500283
112	0x3d4314a2	0.0476271
113	0xbd0dd858	-0.03463015
114	0xbd3949e8	-0.045236498
115	0xbd38f47b	-0.04515503
116	0x3d07b6c9	0.033133302
117	0xbc8ebc28	-0.017423704
118	0xbc00fecb	-0.007873247
119	0xbcd642d8	-0.02615492
120	0x3cf94a22	0.030430857
121	0xbd0a1c03	-0.03371812
122	0xbcb21f1d	-0.021743352
123	0xbd06e670	-0.032934606
124	0x3d6ff0ae	0.05857914
125	0xbd657cac	-0.0560271
126	0xbd7d3f03	-0.06182767
127	0xbd389659	-0.045065258
128	0x3d6158a7	0.055016186
129	0xbcf2dd54	-0.029646553
130	0xbd169d9f	-0.036771413
131	0xbd531754	-0.05153592
132	0x3d26da28	0.040735394
133	0xbcbe452d	-0.023226345
134	0xbbcbab36	-0.0062154783
135	0xbd177852	-0.03697998
136	0x3d2ed6fa	0.042685486
137	0xbc4dd48d	-0.012562883
138	0xbb6497d1	-0.0034880529
139	0xbd02dfb7	-0.031951632
140	0x3ce3ce93	0.027808463
141	0xbce11512	-0.027475867
142	0xbcffc433	-0.031221485
143	0xbce17dc2	-0.027525786
144	0x3d51d9f8	0.05123326
145	0xbd2d91e5	-0.042375464
146	0xbd4576a3	-0.048208844
147	0xbd4c8206	-0.049928688
148	0x3d8d8bed	0.06911454
149	0xbd8f784e	-0.07005368
150	0xbd7f4d8a	-0.062329806
151	0xbd22e38a	-0.03976778
152	0x3c9c5a5d	0.019086057
153	0xbb91d7e9	-0.0044507873
154	0xbd033d41	-0.03204084
155	0xbc40812b	-0.011749546
156	0x3d75deb8	0.060026854
157	0xbd71978c	-0.058982417
158	0xbd8e8c7b	-0.06960388
159	0xbce4b637	-0.027918918
160	0x3d06b253	0.032884907
161	0xbbf0d02f	-0.007349036
162	0xbc8b2d23	-0.016989296
163	0xbd195bd0	-0.037441075
164	0x3cbea375	0.023271302
165	0xbcbf0719	-0.023318814
166	0xbcb8e862	-0.022571746
167	0xbcc94285	-0.024567852
168	0x3d6788c2	0.056526907
169	0xbd894921	-0.06703401
170	0xbd73f527	-0.059559967
171	0xbd197941	-0.037469152
172	0x3d15a02b	0.0365297
173	0xbbf06e3b	-0.0073373592
174	0xbcb1b681	-0.02169347
175	0xbd27253e	-0.040807
176	0x3d09e594	0.03366621
177	0xbc24fb86	-0.0100697335
178	0xbc36dd81	-0.011161209
179	0xbcff3e78	-0.031157717
180	0x3c0cd5bc	0.00859588
181	0xbca6c561	-0.02035779
182	0xbc1c4d24	-0.009539876
183	0xb9e39bac	-0.000434128
184	0x3d33b654	0.043875054
185	0xbd06392e	-0.032769375
186	0xbd4f1eee	-0.050566606
187	0xbd268b1f	-0.04066002
188	0x3cb6c86e	0.02231237
189	0xbcbcc03d	-0.023040885
190	0xbc89c574	-0.016817786
191	0xbcd4f27e	-0.025994536
192	0x3cef57d8	0.029216692
193	0xbd023b42	-0.031794794
194	0xbbe7f9b8	-0.0070793293
195	0xbd0bc678	-0.03412482
196	0x3d3071e7	0.043077376
197	0xbd3a18d2	-0.045433827
198	0xbd405277	-0.046953645
199	0xbd518730	-0.051154315
200	0x3d447b98	0.04796943
201	0xbd3d92b3	-0.04628248
202	0xbd57573c	-0.052573428
203	0xbbac9e89	-0.0052679223
204	0x3d29578b	0.041343253
205	0xbd011abe	-0.031519644
206	0xbd59db0f	-0.053187426
207	0xbd1e0b9a	-0.038585283
208	0x3d3b28cf	0.045693215
209	0xbd51208c	-0.05105643
210	0xbd3eb3eb	-0.046558302
211	0xbc2fad34	-0.010722447
212	0x3d2da180	0.042390347
213	0xbd37ba7b	-0.044855576
214	0xbd291df2	-0.041288324
215	0xbd48b7d9	-0.049003456
216	0x3cd0ebb3	0.025503015
217	0xbc793d9b	-0.015212442
218	0xbd1171a0	-0.035508752
219	0xbc758fed	-0.014987928
220	0x3d71668e	0.058935694
221	0xbd6d6387	-0.057956245
222	0xbd709abd	-0.05874132
223	0xbd1a69ce	-0.03769856
224	0x3cd2f602	0.025752071
225	0xbc7bb5f8	-0.015363209
226	0xbc65c786	-0.014024621
227	0xbc5683de	-0.013092963
228	0x3d3f99c1	0.04677749
229	0xbd3af1e0	-0.045640826
230	0xbd385efc	-0.04501246
231	0xbd3ad7d8	-0.045616
232	0x3ce3101b	0.02771764
233	0xbca49bde	-0.020093855
234	0xbc6c7e21	-0.014434368
235	0xbcc0b0b0	-0.023521751
236	0x3d4a31e2	0.04936398
237	0xbd2da0dd	-0.04238974
238	0xbd4e5469	-0.05037347
239	0xbd666515	-0.056248743
240	0x3d110c51	0.035412136
241	0xbcfc6cd9	-0.030813621
242	0xbd2ec106	-0.04266455
243	0xbd083ed0	-0.033263028
244	0x3d2172a4	0.03941597
245	0xbd01c4a0	-0.031681657
246	0xbccb9fa7	-0.024856402
247	0xbd1c4c40	-0.038158655
248	0x3cf0c64f	0.029391436
249	0xbd0442c8	-0.03229025
250	0xbcb22988	-0.02174832
251	0xbcffd864	-0.031231113
252	0x3cda5e36	0.026656251
253	0xbca97067	-0.02068348
254	0xbd066d02	-0.0328188
255	0xbc518e7c	-0.012790319

embedding_item_mlp.weight f4 [200, 4]
0	0xbc928758	-0.017886803
1	0x3ccefd78	0.025267348
2	0x3cd98288	0.0265515
3	0xbcf3ef6c	-0.029777251
4	0x3b38acdd	0.0028179206
5	0x3d4e3ea3	0.050352704
6	0x3d516309	0.051119838
7	0xbd456496	-0.04819163
8	0xbc601ed5	-0.013679226
9	0x3d0cb4dc	0.03435217
10	0x3d29e7fe	0.04148101
11	0xbcd0d6d5	-0.025493065
12	0x3ca2fe21	0.019896569
13	0x3cb631c0	0.02224052
14	0x3cadeb95	0.021230498
15	0xbcb34083	-0.021881348
16	0xbc8219fb	-0.01588153
17	0x3d254228	0.040346295
18	0x3d309587	0.04311135
19	0xbd424011	-0.04742438
20	0x3c87d53d	0.016581172
21	0x3c2a4070	0.01039134
22	0x3b8840c2	0.0041581104
23	0xbd200d93	-0.039075445
24	0xbc333527	-0.0109379655
25	0x3d0be366	0.03415241
26	0x3d32a70e	0.043616347
27	0xbc991c5c	-0.01869028
28	0xbd0aa2e7	-0.033846762
29	0x3d0c3256	0.03422769
30	0x3c36b959	0.011152589
31	0xbcf1cc74	-0.029516436
32	0x3c19105a	0.009342277
33	0x3d2e96ad	0.042624164
34	0x3d4f3bd1	0.050594155
35	0xbd67d8c9	-0.056603227
36	0xbd0cd4cb	-0.034382623
37	0x3d36a9f2	0.044595666
38	0x3d2fc4b7	0.04291221
39	0xbd28ff8a	-0.041259326
40	0x3cbff17e	0.023430582
41	0x3cc2a8dc	0.023762159
42	0x3ccd2734	0.025043108
43	0xbcd601c7	-0.026123894
44	0xbcd070c9	-0.025444405
45	0x3cd1ee9a	0.02562647
46	0x3ce34f92	0.027747903
47	0xbcda3c9d	-0.02664023
48	0x3cb399f7	0.021924002
49	0x3d5bebdd	0.053691734
50	0x3d233139	0.039841864
51	0xbd3d3604	-0.04619409
52	0x3c95ca5e	0.018284973
53	0x3d25bac0	0.0404613
54	0x3d1c33fe	0.03813552
55	0xbd3da15f	-0.046296474
56	0x3cc3ece6	0.023916673
57	0x3d247148	0.040147096
58	0x3d40bce4	0.04705514
59	0xbd2d1438	-0.04225561
60	0x3ce75560	0.028238952
61	0x3d1b32e1	0.03789032
62	0x3cfc8226	0.030823778
63	0xbd190e91	-0.037367407
64	0x3c155d69	0.009116509
65	0x3d2901a8	0.041261345
66	0x3d0f35ee	0.03496354
67	0xbd2f1c22	-0.04275144
68	0x3c9eff9d	0.019408995
69	0x3d86e2d5	0.065862335
70	0x3d89ab66	0.06722145
71	0xbd04fe04	-0.03246881
72	0xbbc34716	-0.005959402
73	0x3d40d982	0.04708243
74	0x3d29a42e	0.04141634
75	0xbd463dcc	-0.048398778
76	0xbc3f8cd7	-0.011691294
77	0x3d5fa940	0.05460477
78	0x3d79a587	0.060948875
79	0xbd61e54a	-0.055150308
80	0x3ce88ee7	0.028388454
81	0x3d6aaa1f	0.057291146
82	0x3d35dd75	0.04440065
83	0xbd3e5609	-0.04646877
84	0x3cef58ae	0.02921709
85	0x3cca8ef7	0.024726374
86	0x3cd4e575	0.02598832
87	0xbcaf5219	-0.021401452
88	0x3d25b304	0.040453926
89	0x3d4d2f0c	0.050093696
90	0x3d1f0427	0.03882232
91	0xbd19fdfd	-0.037595738
92	0xbb3deaf1	-0.0028979147
93	0x3d8b60fa	0.06805606
94	0x3d722e22	0.059126027
95	0xbc45515f	-0.012043326
96	0x3b5466e3	0.0032409958
97	0x3d2646ca	0.040594853
98	0x3d0b5fa0	0.034026742
99	0xbd8113a5	-0.06302575
100	0x3cf4c270	0.029877871
101	0x3d26375e	0.040580146
102	0x3d297405	0.04137041
103	0xbd12b4e3	-0.03581704
104	0x3ce8b635	0.028407196
105	0x3d56d0e6	0.052445315
106	0x3d12ea34	0.035867885
107	0xbd4a17cb	-0.049339097
108	0xbd0cc025	-0.03436293
109	0x3cccbcf0	0.024992436
110	0x3cacb583	0.021082645
111	0xbcddf062	-0.027092163
112	0xbc885fdd	-0.016647274
113	0x3d2da199	0.04239044
114	0x3d4b9207	0.04969981
115	0xbc824c3e	-0.015905496
116	0x3c3dfdc2	0.011596145
117	0x3d018cae	0.031628303
118	0x3c98154d	0.018564845
119	0xbccf81f9	-0.02533053
120	0x3cc760c9	0.024338143
121	0x3d0eb874	0.034843877
122	0x3cbca58e	0.023028161
123	0xbcbb2c86	-0.022848379
124	0x3c5d4e53	0.0135074435
125	0x3d7e3f93	0.062072348
126	0x3d81042e	0.06299625
127	0xbd12ef6a	-0.035872854
128	0xbce20c50	-0.027593762
129	0x3d1a87d6	0.0377272
130	0x3d21a51d	0.039464105
131	0xbd22b527	-0.03972354
132	0xbd330ea1	-0.043715123
133	0x3cb36813	0.021900212
134	0x3baade9b	0.005214525
135	0xbcae8460	-0.021303356
136	0xbce7ca97	-0.028294845
137	0x3b9bae7a	0.004751024
138	0x3c2da9ee	0.010599596
139	0xbd1b5fb6	-0.037933074
140	0xbcc7ca4e	-0.024388459
141	0x3cc18ea5	0.023627589
142	0x3cf79c4d	0.030225897
143	0xbcd3da00	-0.025860786
144	0x3c149b88	0.009070285
145	0x3d392f8b	0.045211356
146	0x3d3fa389	0.04678682
147	0xbd299d24	-0.041409627
148	0x3cd6a9e4	0.026204057
149	0x3d5788d8	0.05262074
150	0x3d939db3	0.07207813
151	0xbd10d5a2	-0.035359986
152	0xbd32e11b	-0.04367171
153	0x3cac42b4	0.0210279
154	0x3d2fdac3	0.042933237
155	0xbced0810	-0.028934509
156	0xbcf6cdfe	-0.030127522
157	0x3d23c3dd	0.03998171
158	0x3d901e72	0.07037057
159	0xbd16e6a5	-0.036841054
160	0xbd032ad2	-0.03202326
161	0x3c853996	0.01626281
162	0x3c0f8198	0.008758925
163	0xbcbd16a7	-0.02308209
164	0x3ccd8862	0.025089446
165	0x3cdd579b	0.027019313
166	0x3cb130c6	0.021629702
167	0xbcd1e5d1	-0.02562228
168	0x3b8886d3	0.004166463
169	0x3d2a7688	0.041616946
170	0x3d735378	0.059405774
171	0xbd344ec6	-0.044020437
172	0xbd043e91	-0.03228623
173	0x3c92706b	0.01787587
174	0x3c821511	0.015879186
175	0xbcd24d3d	-0.025671596
176	0xbd1d8b10	-0.0384627
177	0x3c79ffa0	0.0152587
178	0x3c06d8b1	0.008230374
179	0xbd0cc763	-0.034369837
180	0x3c8bf9d5	0.017086903
181	0x3ac17aa5	0.0014761282
182	0x3c0e8f20	0.008701116
183	0xbd103a8f	-0.035212096
184	0x3afc1945	0.0019233605
185	0x3d2c75a8	0.042104393
186	0x3d8166ea	0.063184574
187	0xbd539585	-0.051656265
188	0xbcf2f001	-0.029655458
189	0x3d028e18	0.031873792
190	0x3ca49399	0.020089911
191	0xbce5cdb0	-0.028052181
192	0x3ca2570c	0.019816898
193	0x3d0dcfac	0.03462188
194	0x3c8b8abd	0.017033929
195	0xbd06b909	-0.032891307
196	0x3d0c970d	0.03432374
197	0x3d3fd38d	0.04683261
198	0x3d3e0cf1	0.04639906
199	0xbd2c2cc8	-0.042034894
200	0xbd22f8a0	-0.03978789
201	0x3d516934	0.05112572
202	0x3d54790c	0.05187325
203	0xbcbec2a0	-0.023286164
204	0xbd244c2e	-0.040111713
205	0x3cf7a75f	0.030231176
206	0x3d916f83	0.07101347
207	0xbd5825bd	-0.052770365
208	0xbd2cb350	-0.042163193
209	0x3d3bb827	0.04582992
210	0x3d3810d1	0.044937912
211	0xbbc8242c	-0.0061078276
212	0x3d24f13e	0.04026913
213	0x3d31fa4d	0.043451596
214	0x3d4541ac	0.048158333
215	0xbd3b92f5	-0.045794446
216	0xbcfc2b60	-0.030782402
217	0x3caf0f3f	0.021369575
218	0x3d28db2f	0.041224655
219	0xbceb48ac	-0.028721176
220	0x3cbf096d	0.023319924
221	0x3d8de96c	0.06929287
222	0x3d4428c0	0.047890425
223	0xbd02062a	-0.03174416
224	0x3c1663aa	0.009179035
225	0x3bf727a1	0.007542566
226	0x3c9f3868	0.019436076
227	0xbcccc249	-0.024994986
228	0x3a429e40	0.0007424094
229	0x3d1bbda2	0.038022645
230	0x3d255b1b	0.040370088
231	0xbd3e94d6	-0.04652866
232	0x3c0b0fb9	0.008487635
233	0x3c3f3ad4	0.011671741
234	0x3c55cffe	0.0130500775
235	0xbcd154ba	-0.025553096
236	0x3d0a835b	0.033816677
237	0x3d6f482f	0.05841845
238	0x3d686f7b	0.05674694
239	0xbc875ca9	-0.016523676
240	0x3d074117	0.03302106
241	0x3d17241b	0.036899667
242	0x3d2ff182	0.04295493
243	0xbcfddded	-0.030989612
244	0x3d210de8	0.039319903
245	0x3d31d04f	0.04341155
246	0x3d27a636	0.040929995
247	0xbd42204b	-0.04739408
248	0xbd04bf99	-0.032409284
249	0x3d0d2d3b	0.034466963
250	0x3cb04298	0.02151613
251	0xbcbfbb8f	-0.023404865
252	0x3c55f66e	0.013059242
253	0x3d05a584	0.03262855
254	0x3d45684a	0.04819516
255	0xbd1430a2	-0.036179192

embedding_user_mf.weight f4 [200, 4]
0	0x3b8bba26	0.004264134
1	0xbc768310	-0.015045896
2	0xbb3ed15c	-0.0029116487
3	0x3d3b6008	0.04574588
4	0xbd284ea9	-0.04109064
5	0x3c692c05	0.0142316865
6	0xbd2fa8f9	-0.042885754
7	0xbd4e810f	-0.05041605
8	0x3cc290c0	0.023750663
9	0xbd108ddb	-0.035291534
10	0x3d20bb2e	0.03924101
11	0xbd483d10	-0.04888636
12	0x3bd7072b	0.006562134
13	0x3d33696e	0.043801717
14	0x3c232344	0.009957138
15	0x3d3aa265	0.045565028
16	0xbd3a2eb7	-0.045454707
17	0xbc225feb	-0.009910564
18	0x3c98aba2	0.018636528
19	0x3d4048f6	0.04694458
20	0xbd3a1fc6	-0.045440458
21	0x3c3b73eb	0.011441211
22	0xbd1150db	-0.0354775
23	0xbd3137c2	-0.043266065
24	0xbc33d7e6	-0.010976767
25	0x3c63474a	0.013871977
26	0xbc2f1deb	-0.010688285
27	0x3d42fa9e	0.04760229
28	0x3d5d080e	0.05396276
29	0x3d55c454	0.052189186
30	0xbd4b228d	-0.049593497
31	0xbc8c3c17	-0.017118497
32	0xbd804dda	-0.06264849
33	0x3d8934c2	0.06699516
34	0x3d7def5d	0.061995853
35	0x3d79ba39	0.06096861
36	0x3d6ad700	0.057333946
37	0x3bc4e2b7	0.006008472
38	0xbcade3a3	-0.02122671
39	0xbafec704	-0.0019437973
40	0xbc0091e1	-0.00784728
41	0xbd59aec2	-0.053145178
42	0xbd230de5	-0.039808173
43	0x3d47ec7b	0.04880951
44	0xbd72e7da	-0.059303142
45	0xbd5e0b9c	-0.05421029
46	0xbd188df5	-0.037244756
47	0x3c2993be	0.010350166
48	0xbd525111	-0.051346842
49	0xbd354b67	-0.044261362
50	0x3d570257	0.052492466
51	0x3bc0aace	0.0058797365
52	0x3c802b3f	0.015645621
53	0x3b4bc100	0.0031090379
54	0x3d11757b	0.03551243
55	0xbd3e1c05	-0.04641344
56	0x3b14d733	0.0022711277
57	0x3d7dcccb	0.061962884
58	0xbd2f6717	-0.042822924
59	0xbb8f6bfe	-0.0043768873
60	0xbd188465	-0.037235636
61	0x3d2b0063	0.041748416
62	0xbd132dae	-0.035932235
63	0x3d1099ac	0.035302803
64	0x3c5f7bc6	0.01364035
65	0xbc8410ec	-0.01612135
66	0xbc5b7a13	-0.013395804
67	0x3d238e0b	0.039930385
68	0x3b7de4e8	0.0038741175
69	0xbd82171e	-0.063520655
70	0x3c3394e5	0.010960792
71	0xbcd88238	-0.02642928
72	0x3c3bd31a	0.011463905
73	0x3d50da5a	0.050989486
74	0xbc5c5d2b	-0.013449947
75	0x3d3d5bd7	0.046230163
76	0x3b8c2d32	0.0042778486
77	0x3cc7f640	0.024409413
78	0x3d68257f	0.056676384
79	0x3c6efcf7	0.014586679
80	0x3d175395	0.036944944
81	0x3c6e27f6	0.014535895
82	0x3d06878e	0.03284412
83	0xbcf87b95	-0.030332366
84	0xbd55d2ac	-0.052202865
85	0x3d398a7e	0.045298092
86	0x3d237849	0.039909635
87	0x3d8bb46d	0.06821523
88	0x3c8f8b7e	0.01752257
89	0x3d195156	0.037431084
90	0x3befe1b8	0.007320609
91	0x3c8919de	0.016735967
92	0xbd766fd0	-0.060165226
93	0xbc90320f	-0.017601995
94	0x3d600b9c	0.05469857
95	0x3c28328c	0.010265958
96	0x3c993b5b	0.01870506
97	0x3d87ee07	0.06637197
98	0xbd62f14e	-0.055405907
99	0xbc9a8fd2	-0.018867407
100	0x3d0da768	0.03458348
101	0x3cdc3db4	0.026884891
102	0x3d0416e4	0.032248393
103	0x3d03b2ab	0.032152813
104	0xbd33b88d	-0.043877173
105	0xbd5498dd	-0.051903594
106	0x3d3f3a76	0.046686612
107	0x3c208003	0.009796145
108	0xbd5a9afb	-0.053370457
109	0x3c601b28	0.01367835
110	0xbd4ec9dd	-0.05048548
111	0x3ca2f1df	0.019890724
112	0xbd4ea769	-0.050452624
113	0x3d46b4bc	0.048512205
114	0x3d536546	0.051610254
115	0x3d411a83	0.047144424
116	0x3bf65229	0.0075171185
117	0xbd36988b	-0.04457907
118	0x3d323068	0.043503195
119	0x3d2d91d4	0.0423754
120	0x3c015080	0.007892728
121	0xbd37d803	-0.04488374
122	0xbc3f81d5	-0.011688669
123	0x3d695694	0.056967333
124	0x3d3e5a69	0.04647294
125	0x3c921c28	0.017835692
126	0xbd343a0e	-0.044000678
127	0x3c75ca74	0.015001882
128	0xbc02840d	-0.007966054
129	0xbd558b57	-0.052134838
130	0x3bd6f74f	0.006560243
131	0xbc688e28	-0.014194049
132	0xbb65a6ff	-0.0035042164
133	0x3c96abb9	0.01839243
134	0x3c120919	0.008913302
135	0x3d5502c0	0.052004576
136	0x3cb0ce11	0.021582635
137	0xbd45a991	-0.048257414
138	0x3d32a72d	0.043616462
139	0x3c3a9207	0.011387355
140	0x3d641510	0.05568415
141	0x3c36e88b	0.011163841
142	0xbc2d6974	-0.010584224
143	0xbd5b7afa	-0.053584076
144	0xbbbe7c24	-0.0058131386
145	0xbd836ae7	-0.064168744
146	0xbc0c9b63	-0.008581969
147	0x3d56e4ea	0.052464403
148	0x3c01a5c9	0.007913061
149	0x3d7b37c8	0.061332494
150	0xbc7c40d1	-0.015396313
151	0xbc847f30	-0.016173929
152	0x3c6e30ec	0.014538031
153	0xbd5b673f	-0.05356526
154	0x3d34e71c	0.044165716
155	0x3c23e722	0.010003837
156	0xbd4fab27	-0.050700333
157	0xbd737e6e	-0.059446745
158	0x3ca8ab18	0.020589396
159	0x3c3985e3	0.011323425
160	0x3c71e3d4	0.014763791
161	0x3c110ae8	0.008852698
162	0x3d4275e9	0.04747573
163	0xbd5b6f7f	-0.053573128
164	0x3d3c835b	0.046023708
165	0xbd635fc3	-0.055511247
166	0x3cffcdf0	0.031226128
167	0x3bc2fe98	0.00595076
168	0x3c895cb4	0.016767837
169	0xbd5b9086	-0.053604625
170	0xbd72888b	-0.05921225
171	0xbd59d0c1	-0.0531776
172	0x3cc250de	0.023720201
173	0xbc532f53	-0.012889701
174	0x3ca36cdd	0.019949371
175	0xbc61d674	-0.01378404
176	0x3c53d0dd	0.012928215
177	0xbc671161	-0.014103265
178	0x3d5eeeed	0.054427076
179	0x3d477c96	0.0487028
180	0x3c460f71	0.012088642
181	0xbd4cf073	-0.050033998
182	0x3d4d7f4a	0.05017022
183	0x3d3e6b83	0.04648925
184	0xbd4a7914	-0.049431875
185	0xbc091e3a	-0.008369023
186	0x3c17defd	0.009269473
187	0xbcce07a4	-0.025150128
188	0x3c363454	0.011120874
189	0xbd47e2af	-0.048800167
190	0xbd118acd	-0.03553276
191	0x3c0e17e6	0.00867269
192	0xbd41a102	-0.04727269
193	0x3c74bb84	0.014937285
194	0x3d1cffcf	0.038329896
195	0xbc22c006	-0.009933477
196	0xbc21b5d5	-0.009870012
197	0x3c0f3b64	0.008742187
198	0xbc520a25	-0.012819801
199	0x3ca73eff	0.020415781
200	0x3c14962b	0.009069006
201	0xbd6faf4b	-0.05851678
202	0xbd544dd2	-0.051832028
203	0x3c459618	0.012059711
204	0xbc03a736	-0.008035472
205	0x3ca9a8c5	0.020710358
206	0x3c95e2a7	0.018296553
207	0xbd805e16	-0.062679455
208	0x3d426db0	0.047467887
209	0x3c497d60	0.012297958
210	0xbd5202b8	-0.051272124
211	0xbc0339e4	-0.008009408
212	0xbb221772	-0.0024733213
213	0xbd5b7dfd	-0.05358695
214	0x3d120f8a	0.03565935
215	0xbbfd6084	-0.007732453
216	0xbc8bb15f	-0.01705235
217	0xbc9a338e	-0.018823411
218	0x3d3e021e	0.046388738
219	0x3d3e2f1a	0.04643164
220	0xbd24ff51	-0.04028255
221	0x3c321167	0.010868407
222	0xbd052588	-0.032506496
223	0xbd3463e3	-0.044040572
224	0xbd25d113	-0.04048259
225	0xbd282e3e	-0.041059725
226	0x3ba51259	0.0050375876
227	0x3d3484c0	0.044071913
228	0x3c0e43bb	0.00868314
229	0x3d2db318	0.042407125
230	0x3d5136dd	0.051077712
231	0x3d47ffdf	0.048828002
232	0x3d4ba0c1	0.049713854
233	0xbc766817	-0.015039465
234	0x3d6c83aa	0.057742752
235	0x3d2c39d3	0.042047333
236	0x3c5e42ef	0.013565763
237	0x3d288b03	0.041148197
238	0x3c7c99c7	0.015417523
239	0x3d3df748	0.046378404
240	0xbb1d6a14	-0.0024019526
241	0xbbee6e65	-0.0072763436
242	0x3c9ee2cd	0.019395256
243	0xbca47be5	-0.020078609
244	0xbd0fca48	-0.03510502
245	0x3d08b5a9	0.03337637
246	0x3c45196b	0.012029986
247	0xbca5866c	-0.020205699
248	0x3d48e813	0.04904945
249	0x3d7a1814	0.06105812
250	0xbc621ca0	-0.01380077
251	0x3d53b52b	0.051686447
252	0x3d0abf7f	0.03387403
253	0xbd194266	-0.037416838
254	0x3d2b9565	0.04189052
255	0x3c032818	0.008005165

embedding_item_mf.weight f4 [200, 4]
0	0x3c63c57b	0.0139020635
1	0x3b930681	0.0044868593
2	0xbaf59799	-0.0018737196
3	0xbd231994	-0.039819315
4	0x3d2f1d5b	0.042752605
5	0xbc28fb7b	-0.010313864
6	0xbd32d615	-0.043661196
7	0x3d448ebb	0.04798768
8	0xbc8f368c	-0.017482065
9	0xbce3f075	-0.02782462
10	0x3d270227	0.040773537
11	0x3d44b0a3	0.048020016
12	0x3c35806b	0.0110779805
13	0x3d539d7a	0.051663853
14	0xbbd73341	-0.0065673892
15	0xbd63e47f	-0.055637833
16	0x3d3db738	0.04631731
17	0x3c7dd8ba	0.015493566
18	0xbc1a1cfa	-0.009406323
19	0xbd43f57a	-0.047841527
20	0x3d2788ea	0.040902056
21	0xbc1cb626	-0.009564912
22	0xbd1ecdbe	-0.03877043
23	0x3d39e007	0.045379665
24	0xbc390563	-0.011292788
25	0xbc71edd7	-0.014766178
26	0x3c76273e	0.0150240045
27	0xbd3dfa65	-0.046381373
28	0xbd4bc9b2	-0.0497529
29	0x3d4f357e	0.050588124
30	0xbd4540e2	-0.04815758
31	0xbc27e5f3	-0.010247695
32	0x3d86f8d6	0.065904304
33	0x3d868060	0.06567454
34	0x3d5322b2	0.05154676
35	0xbd90ccc1	-0.07070304
36	0xbd7ff7e7	-0.062492277
37	0xbc9c72f9	-0.019097792
38	0x3b9eed43	0.004850061
39	0xbcb42b0b	-0.02199318
40	0xbc6bd775	-0.014394631
41	0xbd5be155	-0.05368169
42	0xbd140a76	-0.03614279
43	0xbd5cc382	-0.05389739
44	0x3d553c21	0.052059297
45	0xbd83940f	-0.06424724
46	0xbd1f2571	-0.038854066
47	0x3c4bd4f4	0.012440909
48	0x3d3ad188	0.04560998
49	0xbd4f8154	-0.050660446
50	0x3d558c21	0.05213559
51	0x3c3c5f6a	0.011497358
52	0x393b3c99	0.00017856284
53	0x3c73d7a2	0.014882954
54	0x3d0e7042	0.034775026
55	0x3d820694	0.06348911
56	0x3c4efb38	0.012633137
57	0x3d5a5d25	0.053311486
58	0xbd04a7b6	-0.032386504
59	0xbc93c79f	-0.018039523
60	0x3d17161d	0.036886323
61	0x3d27126f	0.040789064
62	0xbd13e934	-0.03611107
63	0xbd118e1c	-0.035535917
64	0x3c2e49a3	0.010637674
65	0x3c32d8cd	0.010915947
66	0x3c762797	0.015024087
67	0xbd264003	-0.04058839
68	0x3baad17d	0.005212961
69	0xbd70348f	-0.058643874
70	0x3a24509c	0.0006268115
71	0x3cdf4a49	0.027257102
72	0x3c832224	0.01600749
73	0x3d749c19	0.05971918
74	0x3c461868	0.01209078
75	0xbd669d4c	-0.056302354
76	0x3c9abb4b	0.018888136
77	0x3b6bf414	0.0036003636
78	0x3d6be4aa	0.057591118
79	0x3c35f308	0.011105306
80	0xbd0c8335	-0.034304816
81	0x3c42bdb3	0.011886048
82	0x3d065fb1	0.032806102
83	0x3d06dacf	0.032923516
84	0x3d71e318	0.059054464
85	0x3d366910	0.04453379
86	0x3d194570	0.037419736
87	0xbd3b1c01	-0.045681003
88	0xbc750e1c	-0.014956977
89	0x3d1287e7	0.035774138
90	0x3c1c3de6	0.009536242
91	0x3b942634	0.0045211557
92	0x3d5eee8a	0.054426707
93	0x3c23b767	0.009992457
94	0x3d676c8d	0.056500006
95	0x3c6feea7	0.0146443015
96	0xbcbc3673	-0.022975182
97	0x3d86b229	0.0657695
98	0xbd7345fb	-0.05939291
99	0x3c84f6ad	0.016230905
100	0xbd1a9df7	-0.037748303
101	0x3ce13051	0.02748886
102	0x3d04d459	0.032429073
103	0xbcf7816d	-0.030213082
104	0x3d38aa99	0.04508457
105	0xbd39c441	-0.045353178
106	0x3d31bcdc	0.043393
107	0x3c540eb3	0.012942958
108	0x3d705b1e	0.058680646
109	0xbc30040f	-0.010743155
110	0xbd565112	-0.05232341
111	0x3ba44822	0.0050134817
112	0x3d494641	0.049139265
113	0x3d5aa0ec	0.053376123
114	0x3d51a653	0.05118401
115	0xbd452154	-0.048127487
116	0x3c57e1af	0.013176366
117	0xbd3635b2	-0.0444848
118	0x3d5a97aa	0.053367294
119	0xbd37172a	-0.044699825
120	0x3c17fc3d	0.009276447
121	0xbd26b04b	-0.04069547
122	0x3c0f4f27	0.008746899
123	0xbd4c8fe7	-0.049941923
124	0xbd3957a9	-0.045249615
125	0x3b8d4e2b	0.004312297
126	0xbd35e028	-0.044403225
127	0x3b74766d	0.0037302033
128	0xbc4e073b	-0.012574966
129	0xbd592098	-0.0530096
130	0xbc686fad	-0.014186782
131	0xbc02f335	-0.007992555
132	0xbc884b2b	-0.016637405
133	0xbbde7ac8	-0.006789539
134	0xbca4e5c5	-0.020129094
135	0xbd4fb36a	-0.050708212
136	0xbbeaa3c1	-0.0071606343
137	0xbd45c8da	-0.04828725
138	0x3d1724a3	0.036900174
139	0x3c1389bd	0.009005007
140	0xbd6f97a8	-0.05849424
141	0xbbb9aa35	-0.005666042
142	0x3bbf3792	0.005835482
143	0x3d5e24b9	0.05423424
144	0xbc4a3a18	-0.012342952
145	0xbd6a9a07	-0.0572758
146	0x3a60406a	0.00085545203
147	0xbd5bab9a	-0.05363045
148	0x3c32fd3d	0.0109246345
149	0x3d46fa5e	0.048578613
150	0x3ae2ef7d	0.0017313805
151	0xb981c09d	-0.00024748305
152	0x3ba3e632	0.0050018067
153	0xbd75f0ca	-0.060044087
154	0x3d3f14bc	0.046650633
155	0x3c328afc	0.010897394
156	0x3d4ec177	0.05047747
157	0xbd5309ad	-0.0515229
158	0x3bc7f4c0	0.0061021745
159	0x3c0c990a	0.008581409
160	0x3bff70f1	0.007795446
161	0xbc663d95	-0.014052768
162	0x3d67679f	0.056495305
163	0x3d44a0c8	0.048004895
164	0xbd289477	-0.041157212
165	0xbd43e584	-0.047826305
166	0x3cc99a7d	0.024609799
167	0x3c8db759	0.017299341
168	0xbb853010	-0.0040645674
169	0xbd5aa3a8	-0.05337873
170	0xbd5c1991	-0.05373532
171	0x3d5c9a3f	0.053858038
172	0xbba211b2	-0.004945957
173	0x3c6485ec	0.013947945
174	0xbc2887b8	-0.010286264
175	0xbc44f38a	-0.012020955
176	0x3c0035ba	0.007825309
177	0x3c0a8a48	0.00845582
178	0x3d7c6cc4	0.061627164
179	0xbd5a674f	-0.05332118
180	0x3c1fbd7b	0.0097497655
181	0xbd44b239	-0.04802153
182	0x3d3dd868	0.04634896
183	0xbd328b16	-0.043589674
184	0x3d7deeac	0.061995193
185	0x3c28d65f	0.010305016
186	0xbc2e1eab	-0.010627429
187	0x3ce6794a	0.028134007
188	0x3c1df92e	0.009641929
189	0xbd46a995	-0.04850157
190	0xbcf61e40	-0.030043721
191	0x3c92a62a	0.017901499
192	0x3d3a5d1a	0.045498945
193	0x3c219be1	0.009863825
194	0x3d1da822	0.038490422
195	0xbc2b2bc8	-0.01044745
196	0xbc41d4df	-0.011830538
197	0xbc1ab904	-0.009443525
198	0x3c5ecd92	0.0135988165
199	0xbaffb81f	-0.0019509828
200	0x3c522bb9	0.012827807
201	0xbd5faaed	-0.054606367
202	0xbd56fb9d	-0.05248605
203	0x3c3a4653	0.011369306
204	0xbc3b1611	-0.011418835
205	0x3c46dd39	0.0121377045
206	0xbb1c9c67	-0.0023896934
207	0x3d7a9537	0.06117746
208	0xbd5c0138	-0.0537121
209	0xbc502652	-0.012704449
210	0xbd4e5e55	-0.05038293
211	0xbc5b0817	-0.013368628
212	0x3c9a0cff	0.018805025
213	0xbd6d01da	-0.057863094
214	0x3ce87d9c	0.028380208
215	0xbc117793	-0.008878606
216	0x3a529d1b	0.0008034275
217	0x3bab51b7	0.005228247
218	0x3d443333	0.04790039
219	0xbd4fbfbe	-0.05071997
220	0x3d2d9251	0.042375866
221	0x3c9514a7	0.018198324
222	0xbd062942	-0.03275419
223	0x3d4300dd	0.047608245
224	0x3d1fca05	0.03901102
225	0xbd34c3e5	-0.044132132
226	0xbc5c6031	-0.013450668
227	0xbd200b9f	-0.039073583
228	0x3b016f4c	0.0019750176
229	0x3d278c0a	0.040905036
230	0x3d44a1d8	0.04800591
231	0xbd6ee9ee	-0.05832856
232	0xbd3307c6	-0.043708585
233	0x3c18edbe	0.009334026
234	0x3d3a9185	0.045548934
235	0xbd2c38a9	-0.042046223
236	0x3bfd4abb	0.007729856
237	0x3d1fd1b1	0.039018337
238	0xbc32d43e	-0.01091486
239	0xbd380a5a	-0.044931747
240	0x3c9bfe6c	0.019042216
241	0x3c4d028b	0.012512813
242	0xbc603a14	-0.013685722
243	0xbb7bb354	-0.0038406448
244	0x3d10588f	0.035240706
245	0x3d06e6a7	0.03293481
246	0x3b2d657a	0.002645819
247	0x3c2af903	0.010435346
248	0xbd54fa44	-0.051996484
249	0x3d5cdb25	0.05391993
250	0x3c5e2587	0.013558752
251	0xbd4c8a15	-0.049936373
252	0xbd118b3c	-0.035533175
253	0xbd16e120	-0.03683579
254	0x3d2737da	0.04082475
255	0x3c45552f	0.012044235

embedding_item_category.weight f4 [19, 4]
0	0xbcb5fb00	-0.022214413
1	0xbcbb3486	-0.022852194
2	0xbcd196dd	-0.025584633
3	0xbca576b6	-0.020198207
4	0xbdab3f4b	-0.083616816
5	0xbda8058e	-0.082041845
6	0xbd8746ea	-0.06605323
7	0xbdaac499	-0.08338279
8	0xbd9cfb57	-0.07665127
9	0xbda1f437	-0.079079084
10	0xbd9f06cd	-0.07764969
11	0xbd7eee56	-0.062239014
12	0xbe0a2ba8	-0.13493216
13	0xbe12593d	-0.14291854
14	0xbde8a19f	-0.11358952
15	0xbe02426f	-0.12720655
16	0xbdd8202c	-0.10553011
17	0xbdeb4a2d	-0.11488757
18	0xbde6bad2	-0.11266102
19	0xbdd09392	-0.10184397
20	0xbe202e38	-0.15642631
21	0xbe217c8c	-0.15770167
22	0xbe2b05dd	-0.16701455
23	0xbe2018fb	-0.1563453
24	0xbe398cb1	-0.18120076
25	0xbe46d92e	-0.19418785
26	0xbe328d62	-0.17436746
27	0xbe3e8ece	-0.18609163
28	0xbe38cfe6	-0.18048057
29	0xbe3f1b8b	-0.1866285
30	0xbe453bb4	-0.19261056
31	0xbe3d0d5f	-0.18462132
32	0xbe1e3f7b	-0.15453903
33	0xbe2800ab	-0.16406505
34	0xbe38544d	-0.18000908
35	0xbe1d5aa5	-0.1536661
36	0xbd597c43	-0.05309702
37	0xbd4f19f2	-0.050561853
38	0xbd462305	-0.04837324
39	0xbd394d48	-0.045239717
40	0xbdcb8fe3	-0.099395536
41	0xbdd7b84e	-0.105332
42	0xbdc72ea9	-0.097256966
43	0xbdc1fa5d	-0.09471581
44	0xbe1913d9	-0.14948978
45	0xbe35ad5c	-0.17741913
46	0xbe259fb0	-0.16174197
47	0xbe1087aa	-0.14114252
48	0xbddd5f7e	-0.10809229
49	0xbde18d83	-0.11013319
50	0xbddbb7d6	-0.10728423
51	0xbded2cef	-0.11580836
52	0xbde573d5	-0.11203734
53	0xbdd5f609	-0.10447318
54	0xbdcc0b6f	-0.09963118
55	0xbde93420	-0.11386895
56	0xbdc6a357	-0.09699123
57	0xbda95551	-0.08268226
58	0xbdc488f7	-0.095964365
59	0xbdc8bf80	-0.09802151
60	0xbda27876	-0.07933132
61	0xbdc31a55	-0.09526507
62	0xbdcf9748	-0.101362765
63	0xbd9f2bf8	-0.07772058
64	0xbe04a97c	-0.12955278
65	0xbe07080d	-0.13186665
66	0xbdfd19a3	-0.123584054
67	0xbde5f4aa	-0.112283066
68	0xbe083527	-0.13301526
69	0xbe28d814	-0.16488677
70	0xbe16923e	-0.14704224
71	0xbe174dc7	-0.14775763
72	0xbda73940	-0.081652164
73	0xbdaa7fc4	-0.083251506
74	0xbda58dd1	-0.0808369
75	0xbd9eb57a	-0.07749458

embedding_media_type.weight f4 [2, 4]
0	0xbe40e597	-0.18837582
1	0x3e4f5c5f	0.2025008
2	0x3e526edd	0.20550103
3	0xbe514a59	-0.20438518
4	0xbe5ce3b4	-0.21571237
5	0x3e5bbedf	0.2145953
6	0x3e54edb7	0.20793806
7	0xbe5b622f	-0.21424173

embedding_channel_category.weight f4 [16, 4]
0	0xbe155528	-0.14583266
1	0x3e135352	0.14387253
2	0xbe146d6e	-0.14494869
3	0x3e19c81c	0.15017742
4	0xbe0eb807	-0.13937388
5	0x3e186916	0.14883837
6	0xbe1770bf	-0.14789103
7	0x3e0d40f0	0.13794303
8	0xbdef6ba4	-0.11690453
9	0x3df15b25	0.117849626
10	0xbdd9bd10	-0.10631764
11	0x3dfb522a	0.12271531
12	0xbe0f8608	-0.14015973
13	0x3e07a893	0.132479
14	0xbe02ad9e	-0.12761542
15	0x3e0ba0be	0.13635537
16	0xbe397e02	-0.18114474
17	0x3e29c734	0.16579896
18	0xbe115b8b	-0.14195077
19	0x3e31a691	0.17348696
20	0xbe0d6116	-0.13806567
21	0x3e20d116	0.1570476
22	0xbe01ca6a	-0.12674871
23	0x3e0f4acc	0.13993376
24	0xbe2ca01d	-0.16857953
25	0x3e261032	0.16217116
26	0xbe2279b7	-0.15866743
27	0x3e2c1f87	0.16808902
28	0xbe17b012	-0.14813259
29	0x3e0d959c	0.13826603
30	0xbe13294e	-0.14371225
31	0x3e269998	0.16269529
32	0xbe1a3a32	-0.15061262
33	0x3e1619d7	0.14658295
34	0xbe19f97b	-0.15036575
35	0x3e1384b2	0.14406088
36	0xbe25888e	-0.16165373
37	0x3e207379	0.1566905
38	0xbe2ff18b	-0.17181985
39	0x3e25b733	0.16183166
40	0xbe1e6bc1	-0.15470792
41	0x3e268026	0.16259822
42	0xbe1dbf31	-0.15404965
43	0x3e1e4fbd	0.15460105
44	0xbdf8d97f	-0.12150859
45	0x3dfcefab	0.123504005
46	0xbdf19764	-0.117964536
47	0x3e048e75	0.12944968
48	0xbe0089b6	-0.12552533
49	0x3e0d4681	0.13796426
50	0xbe09e155	-0.13464864
51	0x3e14dca6	0.14537296
52	0xbdefa98d	-0.11702261
53	0x3dfbd204	0.12295917
54	0xbdfb0d8b	-0.122584425
55	0x3e03dcd6	0.12877211
56	0xbe0c7343	-0.13715844
57	0x3e0f7602	0.1400986
58	0xbe004ec5	-0.12530048
59	0x3e03e0b7	0.1287869
60	0xbe10c481	-0.1413746
61	0x3e02f57a	0.12788954
62	0xbe099853	-0.13437013
63	0x3e12245f	0.14271687

embedding_subscribers.weight f4 [101, 4]
0	0xbdce8b1e	-0.10085128
1	0xbdb243e1	-0.08704353
2	0xbdd0b02b	-0.101898514
3	0xbde37ae3	-0.11107423
4	0xbd8ab36d	-0.06772504
5	0xbd8b9060	-0.06814647
6	0xbda75244	-0.08169988
7	0xbd953364	-0.072851926
8	0xbe129ddb	-0.1431803
9	0xbe167aa9	-0.14695229
10	0xbe0e8cd1	-0.13920905
11	0xbe1f4726	-0.15554485
12	0xbe21de35	-0.15807422
13	0xbe13e0c4	-0.1444121
14	0xbe15cd42	-0.14629081
15	0xbe1d5ef4	-0.15368253
16	0xbdde6291	-0.10858644
17	0xbde4de53	-0.111752175
18	0xbdd94c43	-0.10610249
19	0xbdff9d8a	-0.1248122
20	0xbe3f5d0b	-0.18687837
21	0xbe26b28d	-0.16279049
22	0xbe2af9b3	-0.16696815
23	0xbe2ec149	-0.1706592
24	0xbe21e0f3	-0.15808468
25	0xbe07c136	-0.13257298
26	0xbe0c253e	-0.13686082
27	0xbe2519a9	-0.1612307
28	0xbdc919a8	-0.09819347
29	0xbda874fa	-0.082254365
30	0xbdc14b27	-0.09438162
31	0xbdc7207d	-0.097229935
32	0xbe08273a	-0.13296214
33	0xbe074c8c	-0.13212794
34	0xbe150ada	-0.14554921
35	0xbe19331b	-0.14960901
36	0xbe06b0e4	-0.13153416
37	0xbe0df00e	-0.13861105
38	0xbe0b5af6	-0.13608918
39	0xbe07bf20	-0.13256502
40	0xbd8a7c80	-0.06762028
41	0xbd985f9b	-0.0744011
42	0xbd879dc2	-0.06621887
43	0xbda4e30a	-0.08051117
44	0xbdbc3c5d	-0.09191201
45	0xbd97f859	-0.074204154
46	0xbdb991d2	-0.09061016
47	0xbdb2d615	-0.08732239
48	0xbde54d33	-0.11196365
49	0xbdd58c21	-0.10427118
50	0xbde39882	-0.11113073
51	0xbddb075e	-0.106947646
52	0xbdc435be	-0.09580563
53	0xbd76b2d4	-0.060229138
54	0xbd980c2d	-0.07424197
55	0xbdc0a2db	-0.09406062
56	0xbd8d56d6	-0.06901328
57	0xbd51fbb5	-0.051265437
58	0xbd72c97b	-0.059274178
59	0xbd5ee24d	-0.054415036
60	0xbd6cdc7b	-0.057827454
61	0xbd773644	-0.060354486
62	0xbd5cd2ec	-0.05391209
63	0xbd828326	-0.06372671
64	0xbddcd8ec	-0.10783562
65	0xbdbb501f	-0.09146141
66	0xbddbe8af	-0.1073774
67	0xbdc17cd0	-0.09447634
68	0xbd7da81e	-0.061927907
69	0xbd837336	-0.06418459
70	0xbd5253d7	-0.051349487
71	0xbd81b3f7	-0.06333154
72	0xbd9bffb5	-0.076171316
73	0xbd925f97	-0.071471386
74	0xbda76e59	-0.08175344
75	0xbd9c73ab	-0.076392494
76	0xbe00020c	-0.12500781
77	0xbde1dcda	-0.11028452
78	0xbdf71592	-0.12064661
79	0xbdf074d7	-0.117410354
80	0xbdeb1b53	-0.11479821
81	0xbdd24872	-0.10267724
82	0xbdeb3544	-0.11484769
83	0xbdd4f086	-0.10397439
84	0xbdb4073d	-0.08790443
85	0xbd91b8a6	-0.07115297
86	0xbdaaf4bd	-0.083474614
87	0xbda652be	-0.081212506
88	0xbda28765	-0.07935981
89	0xbd8baa3a	-0.068195775
90	0xbda74ab7	-0.081685476
91	0xbdd142d2	-0.10217823
92	0xbdc5afbb	-0.096526586
93	0xbdc459d7	-0.09587448
94	0xbdbf32b0	-0.0933584
95	0xbdd16793	-0.10224833
96	0xbd68737b	-0.056750756
97	0xbd8aa2fd	-0.06769369
98	0xbd79bc18	-0.060970396
99	0xbd79539d	-0.060870755
100	0xbd88932e	-0.06668697
101	0xbd9215c8	-0.07133061
102	0xbd82d2b6	-0.06387846
103	0xbd806d5c	-0.06270859
104	0xbcdb529c	-0.02677279
105	0xbcb2230f	-0.021745233
106	0xbcdca3e9	-0.026933627
107	0xbd0f383c	-0.03496574
108	0xb80c559a	-3.3458324e-05
109	0x37d5e203	2.5496824e-05
110	0x37ea1a70	2.7907285e-05
111	0x380e942e	3.399344e-05
112	0xbd98892f	-0.07448041
113	0xbd9467f0	-0.07246387
114	0xbd7f410c	-0.062317893
115	0xbdae5202	-0.085117355
116	0xbd8fe6a1	-0.07026411
117	0xbd3d5a55	-0.046228725
118	0xbd63c0a8	-0.055603653
119	0xbd6e62eb	-0.058199804
120	0xbdb4a98c	-0.08821401
121	0xbda13765	-0.07871894
122	0xbdbda2c2	-0.09259559
123	0xbda7059b	-0.08155366
124	0xbd9f4ac1	-0.0777793
125	0xbd9e5bdc	-0.077323645
126	0xbdba0919	-0.090837665
127	0xbda16b85	-0.07881836
128	0xbd21eb29	-0.039530907
129	0xbd23c861	-0.039986018
130	0xbd2e058c	-0.04248576
131	0xbd475d26	-0.048672818
132	0xb791316d	-1.7308363e-05
133	0xb8674c0b	-5.5145512e-05
134	0x36da20ad	6.5007102e-06
135	0x38357a8b	4.326789e-05
136	0xbd01a72e	-0.031653576
137	0xbcf0fd6a	-0.029417712
138	0xbcf8153a	-0.03028356
139	0xbd01bcbf	-0.031674143
140	0xbd0c65ec	-0.034276888
141	0xbcd01987	-0.025402797
142	0xbd175f10	-0.036955893
143	0xbd13203e	-0.03591942
144	0xbdb2d4f6	-0.08732025
145	0xbdc11fe4	-0.09429911
146	0xbdaa1f8b	-0.083067976
147	0xbdac9373	-0.08426561
148	0xbd89527d	-0.067051865
149	0xbd2a0f56	-0.04151853
150	0xbd3d28f7	-0.046181645
151	0xbd57a9ed	-0.05265229
152	0xb734550e	-1.0748639e-05
153	0x384d0303	4.8878614e-05
154	0x3689b8ae	4.1044177e-06
155	0x383109e4	4.22093e-05
156	0x38407cd3	4.589262e-05
157	0xb670e6dc	-3.5897165e-06
158	0x3728550a	1.003338e-05
159	0x37d553c9	2.5430594e-05
160	0xbd41e47f	-0.04733705
161	0xbd80c5bd	-0.062877156
162	0xbd56a85b	-0.05240665
163	0xbd3620e8	-0.044464976
164	0xbd503d49	-0.050839696
165	0xbd61fa76	-0.0551705
166	0xbd74ca69	-0.059763346
167	0xbd696045	-0.056976575
168	0xb86c7502	-5.6375757e-05
169	0x35febaa4	1.8978794e-06
170	0xb8652094	-5.4628195e-05
171	0xb8dc53b0	-0.000105060055
172	0xbd937fb5	-0.072020926
173	0xbd43bd70	-0.047788084
174	0xbd626ac6	-0.05527761
175	0xbda92ed9	-0.082608886
176	0xbd021b09	-0.031764064
177	0xbcf08565	-0.029360482
178	0xbcf998a3	-0.03046829
179	0xbcff607b	-0.031173935
180	0x384539e3	4.702237e-05
181	0xb78f6979	-1.7096043e-05
182	0x380a8ed0	3.303477e-05
183	0x3784ffc4	1.5854726e-05
184	0x382eddc2	4.169136e-05
185	0x3816b2ef	3.592943e-05
186	0xb7cc87e0	-2.4381967e-05
187	0x38a19daf	7.706449e-05
188	0x366009ec	3.3384376e-06
189	0xb7499b88	-1.2016746e-05
190	0xb729b235	-1.0114677e-05
191	0x384a82b8	4.8282294e-05
192	0x3746707d	1.182791e-05
193	0xb81fc305	-3.809018e-05
194	0x37b5b39c	2.1660519e-05
195	0xb7d00371	-2.4797135e-05
196	0x35acb5f6	1.2867956e-06
197	0xb7319e87	-1.0586932e-05
198	0xb86b2c57	-5.606966e-05
199	0xb8245809	-3.9182636e-05
200	0xb7195c9e	-9.141075e-06
201	0xb702479e	-7.7652785e-06
202	0xb857d378	-5.145694e-05
203	0xb46701fe	-2.1514276e-07
204	0xb8026bb5	-3.1094725e-05
205	0x38e19f3c	0.00010758496
206	0xb8196364	-3.6570607e-05
207	0x3758df5c	1.2926608e-05
208	0xb7d1baee	-2.5001787e-05
209	0x37914005	1.7315158e-05
210	0x3811819a	3.4691395e-05
211	0xb72b936e	-1.022672e-05
212	0xb862949c	-5.4021002e-05
213	0x38ac64a2	8.2203434e-05
214	0x388344b9	6.2593674e-05
215	0x38981c53	7.2532006e-05
216	0xb870caa3	-5.740918e-05
217	0xb833cf6a	-4.2870095e-05
218	0xb86275f1	-5.399244e-05
219	0x386fc7fb	5.7168287e-05
220	0xb855d5d2	-5.0982293e-05
221	0x3774119d	1.4547634e-05
222	0xb8897bc9	-6.555726e-05
223	0xb88efd87	-6.818311e-05
224	0x3754c8d4	1.2682944e-05
225	0xb7698b4a	-1.3920313e-05
226	0x3762c096	1.351549e-05
227	0x38ee47b7	0.00011362082
228	0xb8905c2c	-6.8836234e-05
229	0x38be57bd	9.0762485e-05
230	0x37a5ae9b	1.975084e-05
231	0x38132c07	3.5088535e-05
232	0xb6f188c4	-7.1982813e-06
233	0xb8e4c467	-0.0001090847
234	0x3826c9ef	3.976555e-05
235	0xb88b79fd	-6.6507586e-05
236	0x37f256d2	2.8889077e-05
237	0xb8ddef4c	-0.00010582674
238	0xb8757670	-5.8522855e-05
239	0x37562911	1.27649555e-05
240	0xb7ec68f2	-2.8182261e-05
241	0xb7c9d6e2	-2.406113e-05
242	0x37eb049e	2.8016333e-05
243	0x36ca955a	6.037456e-06
244	0xb7833c17	-1.5644398e-05
245	0x36cb4e21	6.058967e-06
246	0xb8d9cac2	-0.00010385133
247	0x34e2832a	4.2191215e-07
248	0x37ff6e7a	3.0449813e-05
249	0x37a84ac2	2.0061972e-05
250	0x3884be9c	6.329754e-05
251	0xb7847f9e	-1.5795053e-05
252	0xb7820055	-1.5497362e-05
253	0xb5feabf5	-1.8974521e-06
254	0xb893cdc4	-7.047833e-05
255	0x383d1962	4.508475e-05

fc_layers.0.weight f4 [64, 24]
0	0x3e32fa2e	0.17478248
1	0xbe34561a	-0.1761097
2	0xbe0135e1	-0.1261821
3	0xbdeac58c	-0.1146346
4	0x3cf412d5	0.029794136
5	0x3debd3c0	0.115149975
6	0x3e17591a	0.14780083
7	0xbdd6d4b3	-0.10489788
8	0xbe40f608	-0.18843853
9	0xbe5967ba	-0.21230975
10	0xbe4dfdeb	-0.20116393
11	0xbe442e59	-0.19158305
12	0xbe58b47d	-0.21162601
13	0x3e5e7b5c	0.21726745
14	0x3e4ddfc0	0.20104885
15	0xbe586bed	-0.2113492
16	0xbe464a44	-0.19364268
17	0x3e616415	0.22010835
18	0xbe5a3285	-0.21308334
19	0x3e4d706f	0.20062421
20	0xbe45993d	-0.19296737
21	0xbe3ea3fd	-0.18617244
22	0xbe5aaecf	-0.21355747
23	0xbe4ec1b1	-0.20191075
24	0x373fd78c	1.1434673e-05
25	0xb7e89cf4	-2.7729642e-05
26	0x38be8ae0	9.0857735e-05
27	0xb7288293	-1.0043982e-05
28	0xb80b4bae	-3.3210665e-05
29	0x38ad7f51	8.2729974e-05
30	0xb7b230ef	-2.124204e-05
31	0xb8a5c499	-7.904432e-05
32	0xb816496c	-3.5831166e-05
33	0xb6dab003	-6.5173967e-06
34	0x37e38ff2	2.7127538e-05
35	0x38118b74	3.470057e-05
36	0x3880a065	6.1333914e-05
37	0xb885f1ce	-6.386974e-05
38	0xb7bb1ae7	-2.2304665e-05
39	0xb8ac52d3	-8.217026e-05
40	0x384b4631	4.8464342e-05
41	0xb82651ed	-3.9653783e-05
42	0x3656cba8	3.2007028e-06
43	0xb623d6e2	-2.441397e-06
44	0x366ea1a6	3.5558855e-06
45	0x37dc0745	2.6229429e-05
46	0x3801f268	3.0981755e-05
47	0x38b2e977	8.5311876e-05
48	0x3e38e72a	0.18056932
49	0xbe3e1bc0	-0.18565273
50	0xbe1075bf	-0.14107417
51	0xbdf2e6d8	-0.11860436
52	0x3cad6593	0.021166598
53	0x3e0b857f	0.13625143
54	0x3e0c2421	0.13685657
55	0xbdf100ef	-0.11767756
56	0xbe416921	-0.1888776
57	0xbe51ad81	-0.20476343
58	0xbe4d236f	-0.20033048
59	0xbe4b74ba	-0.19868746
60	0xbe5a8d61	-0.21342994
61	0x3e59fed2	0.21288612
62	0x3e5a7466	0.21333465
63	0xbe70617a	-0.23474684
64	0xbe5208ea	-0.20511213
65	0x3e579ac9	0.2105514
66	0xbe44a521	-0.19203617
67	0x3e62e478	0.22157466
68	0xbe5a3837	-0.21310507
69	0xbe415a4e	-0.18882105
70	0xbe523fcc	-0.20532149
71	0xbe4e036e	-0.20118496
72	0x3e27524a	0.16339985
73	0xbe377880	-0.17917061
74	0xbe0c931b	-0.13727991
75	0xbdd9960f	-0.106243245
76	0x3d0ad9ce	0.03389912
77	0x3dee435a	0.1163394
78	0x3e050b4a	0.12992588
79	0xbdf34f01	-0.11880303
80	0xbe5578ba	-0.20846835
81	0xbe52c710	-0.20583749
82	0xbe5acd30	-0.21367335
83	0xbe45b6c9	-0.19308008
84	0xbe670636	-0.22560963
85	0x3e554bd4	0.20829707
86	0x3e536bba	0.20646563
87	0xbe666e49	-0.22503008
88	0xbe530d09	-0.20610441
89	0x3e52869a	0.20559159
90	0xbe54a4a9	-0.20765938
91	0x3e54ac4b	0.2076885
92	0xbe535050	-0.20636106
93	0xbe4b35a7	-0.19844685
94	0xbe55c8e1	-0.2087741
95	0xbe49419d	-0.19653936
96	0x3e3d716d	0.185003
97	0xbe39cc78	-0.18144405
98	0xbe127649	-0.14302935
99	0xbdbb400e	-0.09143077
100	0x3c8b5095	0.017006198
101	0x3df94e9d	0.121731974
102	0x3e0d56d4	0.13802654
103	0xbdd61406	-0.10453038
104	0xbe4efd03	-0.20213704
105	0xbe5d5110	-0.21612954
106	0xbe5f4363	-0.2180305
107	0xbe49cc78	-0.19706905
108	0xbe5b53e5	-0.21418722
109	0x3e5ee8ea	0.21768537
110	0x3e4e630d	0.20154972
111	0xbe70db93	-0.23521261
112	0xbe5d619a	-0.21619263
113	0x3e4f1758	0.20223749
114	0xbe558792	-0.20852497
115	0x3e5a84c0	0.21339703
116	0xbe4c8cb1	-0.19975545
117	0xbe52040b	-0.20509355
118	0xbe510963	-0.20413737
119	0xbe59ec2d	-0.212815
120	0x3e2e577a	0.17025557
121	0xbe30f4b4	-0.17280847
122	0xbdefa453	-0.11701264
123	0xbdd4a951	-0.10383857
124	0x3cc17659	0.023616003
125	0x3df2c24f	0.11853468
126	0x3e066610	0.13124871
127	0xbdec5e01	-0.11541367
128	0xbe3b784a	-0.18307605
129	0xbe3fc6bb	-0.18728153
130	0xbe3fd019	-0.18731727
131	0xbe3af221	-0.18256427
132	0xbe40905e	-0.18805072
133	0x3e3f5dd6	0.1868814
134	0x3e4828b0	0.19546771
135	0xbe42f9c1	-0.19040586
136	0xbe448f54	-0.191953
137	0x3e47cdb9	0.1951207
138	0xbe42c461	-0.19020225
139	0x3e4257ed	0.18978854
140	0xbe453112	-0.19257
141	0xbe3b482e	-0.18289253
142	0xbe39c99e	-0.18143317
143	0xbe3f9371	-0.18708588
144	0x3e3ddd51	0.18541457
145	0xbe439ce7	-0.19102822
146	0xbe00ee14	-0.1259082
147	0xbdb1416c	-0.08655056
148	0x3cf72bd9	0.030172275
149	0x3dddace3	0.10823991
150	0x3e18b1cf	0.14911579
151	0xbdf29678	-0.11845106
152	0xbe55e49a	-0.20887986
153	0xbe6824ce	-0.2267029
154	0xbe5804cc	-0.2109558
155	0xbe4ca38d	-0.19984265
156	0xbe58af62	-0.21160653
157	0x3e61356b	0.21993034
158	0x3e55c5c0	0.20876217
159	0xbe58eac2	-0.21183303
160	0xbe5b7540	-0.21431446
161	0x3e5834d6	0.21113905
162	0xbe5680c0	-0.20947552
163	0x3e5b1808	0.21395886
164	0xbe554bd4	-0.20829707
165	0xbe3cf87b	-0.18454163
166	0xbe456a25	-0.19278772
167	0xbe4dcb88	-0.20097172
168	0x384f2125	4.9383514e-05
169	0xb7c27a06	-2.3183424e-05
170	0x38c25286	9.266012e-05
171	0xb8e86ef5	-0.000110832894
172	0xb86a1c49	-5.581629e-05
173	0xb86e56bc	-5.68244e-05
174	0x382fcdd0	4.191493e-05
175	0x37679ce5	1.3805203e-05
176	0x38191e12	3.6506048e-05
177	0x380ec520	3.4039025e-05
178	0xb689cb77	-4.1066046e-06
179	0x383c78b8	4.493512e-05
180	0x3807ac80	3.234716e-05
181	0xb80ce973	-3.3596018e-05
182	0x388808ae	6.486602e-05
183	0x3853ba1f	5.047966e-05
184	0x37aa9238	2.0333668e-05
185	0x385f8311	5.328941e-05
186	0xb64d34e4	-3.0578167e-06
187	0x38cbe6f3	9.722812e-05
188	0xb8a3ad84	-7.8047655e-05
189	0x37d293fb	2.510286e-05
190	0x38959878	7.133273e-05
191	0x378fa29f	1.7122655e-05
192	0x387def86	6.0542974e-05
193	0x3896ea4d	7.196199e-05
194	0x371288c3	8.7341205e-06
195	0xb8a992a3	-8.085861e-05
196	0xb7c9c97a	-2.4054887e-05
197	0xb7d44af0	-2.5307265e-05
198	0x38821fe2	6.204822e-05
199	0x36ff7335	7.613004e-06
200	0xb81b55cc	-3.7034784e-05
201	0xb881b6b6	-6.185232e-05
202	0xb7fe26ac	-3.0297168e-05
203	0xb7c1c965	-2.3101175e-05
204	0x385472a0	5.065149e-05
205	0x38e429bd	0.000108796616
206	0xb8cc6215	-9.745747e-05
207	0x3811a311	3.472256e-05
208	0x38e6a250	0.00010997488
209	0x37dbd6ea	2.6206912e-05
210	0xb8252dd3	-3.9381743e-05
211	0xb7cf7fb8	-2.4735797e-05
212	0x378f5549	1.7086642e-05
213	0xb8750bfe	-5.842372e-05
214	0xb883e8c6	-6.289924e-05
215	0x37dea82b	2.6542772e-05
216	0x3e32b3b9	0.17451371
217	0xbe3bbc73	-0.18333606
218	0xbe11d7ad	-0.1424243
219	0xbdf4d7fc	-0.11955258
220	0x3cbafd6d	0.022825921
221	0x3e0050db	0.12530844
222	0x3e08b455	0.13350041
223	0xbdef2184	-0.116763145
224	0xbe4abacf	-0.19797824
225	0xbe5b9aab	-0.2144572
226	0xbe5317fe	-0.20614621
227	0xbe521d11	-0.205189
228	0xbe52449d	-0.20533986
229	0x3e58fe88	0.21190846
230	0x3e58a436	0.21156392
231	0xbe590cf3	-0.21196346
232	0xbe5debc8	-0.21671975
233	0x3e51c160	0.20483923
234	0xbe537877	-0.20651422
235	0x3e5e5433	0.21711807
236	0xbe5bf5f0	-0.21480536
237	0xbe430cce	-0.19047853
238	0xbe4aca6d	-0.19803782
239	0xbe5bb01f	-0.21453904
240	0x38ece488	0.00011295924
241	0xb795555e	-1.7801936e-05
242	0x38668fe6	5.497029e-05
243	0x37972fe6	1.8022907e-05
244	0x371ca9e7	9.337883e-06
245	0xb8829801	-6.227196e-05
246	0x3349cf65	4.6987584e-08
247	0xb7f9baff	-2.977019e-05
248	0xb8844574	-6.307187e-05
249	0xb706a6f7	-8.025897e-06
250	0xb8660061	-5.4836626e-05
251	0x37aeb9ac	2.0828877e-05
252	0x379b7b42	1.8534836e-05
253	0xb8ccd0c1	-9.7663615e-05
254	0xb80662ba	-3.2040036e-05
255	0xb7df4ddf	-2.6619933e-05

fc_layers.0.bias f4 [64]
0	0x3ec573fd	0.38565055
1	0xbac5c518	-0.0015088646
2	0x3ebcb656	0.3685786
3	0x3ea461c5	0.32105842
4	0x3ed4b5c0	0.41544914
5	0x3e3fc006	0.18725595
6	0x3eb34a23	0.350175
7	0xbceb2703	-0.028705126
8	0xb90d8e26	-0.00013499762
9	0x3ea33168	0.3187363
10	0x388614b6	6.3934756e-05
11	0x38efe57e	0.00011439154
12	0xbc28056f	-0.010255202
13	0x3749c89b	1.2027241e-05
14	0x3eaaecb8	0.33383727
15	0xbb8b8bb1	-0.004258596
16	0xbc02a9f3	-0.007975089
17	0xbbdfbbc8	-0.006827805
18	0x3e98f379	0.29873255
19	0xbcc6e551	-0.024279268
20	0x3eaaa3b2	0.33328015
21	0xbbb8bc22	-0.0056376616
22	0xbb6f2f3b	-0.0036496657
23	0xb8cbdc8c	-9.7208744e-05
24	0x3eae69a9	0.34064987
25	0xbc1587ec	-0.009126645
26	0x3830723a	4.206805e-05
27	0x3e7aa812	0.24478176
28	0xbc383402	-0.011242868
29	0x3e749115	0.2388347
30	0x3e829e5e	0.2551145
31	0x3e79c40f	0.24391197
32	0x3ec98a6d	0.39363423
33	0x3ea28228	0.31739926
34	0x3e8bcbbf	0.27303883
35	0x3eaebf9a	0.34130555
36	0x3ea289b2	0.31745678
37	0x38dffe18	0.00010680797
38	0x3e857344	0.26064503
39	0x3ed85c0f	0.42257735
40	0xbcc75ae9	-0.024335342
41	0xb9910652	-0.00027661264
42	0xbb05f77c	-0.0020441702
43	0x3ec3b9f2	0.38227803
44	0xb9f79344	-0.00047221233
45	0xbc4fb07d	-0.012676355
46	0x3eb9dde6	0.36302108
47	0x3e96f6ce	0.29485172
48	0xbc0b8150	-0.008514717
49	0xbb5f7aa2	-0.0034100194
50	0x3e7fef53	0.24993639
51	0xbb6a56c1	-0.0035757276
52	0x3ec2510a	0.37952453
53	0x3e8c31fb	0.27381882
54	0x38c5cece	9.4322124e-05
55	0x389e81d0	7.5582066e-05
56	0xb9796382	-0.0002378356
57	0x3ed48854	0.4151026
58	0x3ecfe7c5	0.40606514
59	0x3eba8ff2	0.36437947
60	0xbc9f2646	-0.01942743
61	0x3e857338	0.26064467
62	0x3ea3b7a2	0.31976038
63	0x3ece4498	0.40286708
